yokoyama@nagisa:/media/yokoyama/HDD3TB1/robo2019/2019-Camera$ ./darknet detector map data/config/learning.data data/config/learning.cfg backup/learning_1000.weights -gpus 0,1
0,1
layer     filters    size              input                output
   0 conv     32  3 x 3 / 1   416 x 416 x   3   ->   416 x 416 x  32 0.299 BF
   1 max          2 x 2 / 2   416 x 416 x  32   ->   208 x 208 x  32 0.006 BF
   2 conv     64  3 x 3 / 1   208 x 208 x  32   ->   208 x 208 x  64 1.595 BF
   3 max          2 x 2 / 2   208 x 208 x  64   ->   104 x 104 x  64 0.003 BF
   4 conv    128  3 x 3 / 1   104 x 104 x  64   ->   104 x 104 x 128 1.595 BF
   5 conv     64  1 x 1 / 1   104 x 104 x 128   ->   104 x 104 x  64 0.177 BF
   6 conv    128  3 x 3 / 1   104 x 104 x  64   ->   104 x 104 x 128 1.595 BF
   7 max          2 x 2 / 2   104 x 104 x 128   ->    52 x  52 x 128 0.001 BF
   8 conv    256  3 x 3 / 1    52 x  52 x 128   ->    52 x  52 x 256 1.595 BF
   9 conv    128  1 x 1 / 1    52 x  52 x 256   ->    52 x  52 x 128 0.177 BF
  10 conv    256  3 x 3 / 1    52 x  52 x 128   ->    52 x  52 x 256 1.595 BF
  11 max          2 x 2 / 2    52 x  52 x 256   ->    26 x  26 x 256 0.001 BF
  12 conv    512  3 x 3 / 1    26 x  26 x 256   ->    26 x  26 x 512 1.595 BF
  13 conv    256  1 x 1 / 1    26 x  26 x 512   ->    26 x  26 x 256 0.177 BF
  14 conv    512  3 x 3 / 1    26 x  26 x 256   ->    26 x  26 x 512 1.595 BF
  15 conv    256  1 x 1 / 1    26 x  26 x 512   ->    26 x  26 x 256 0.177 BF
  16 conv    512  3 x 3 / 1    26 x  26 x 256   ->    26 x  26 x 512 1.595 BF
  17 max          2 x 2 / 2    26 x  26 x 512   ->    13 x  13 x 512 0.000 BF
  18 conv   1024  3 x 3 / 1    13 x  13 x 512   ->    13 x  13 x1024 1.595 BF
  19 conv    512  1 x 1 / 1    13 x  13 x1024   ->    13 x  13 x 512 0.177 BF
  20 conv   1024  3 x 3 / 1    13 x  13 x 512   ->    13 x  13 x1024 1.595 BF
  21 conv    512  1 x 1 / 1    13 x  13 x1024   ->    13 x  13 x 512 0.177 BF
  22 conv   1024  3 x 3 / 1    13 x  13 x 512   ->    13 x  13 x1024 1.595 BF
  23 conv   1024  3 x 3 / 1    13 x  13 x1024   ->    13 x  13 x1024 3.190 BF
  24 conv   1024  3 x 3 / 1    13 x  13 x1024   ->    13 x  13 x1024 3.190 BF
  25 route  16
  26 reorg              / 2    26 x  26 x 512   ->    13 x  13 x2048
  27 route  26 24
  28 conv   1024  3 x 3 / 1    13 x  13 x3072   ->    13 x  13 x1024 9.569 BF
  29 conv     65  1 x 1 / 1    13 x  13 x1024   ->    13 x  13 x  65 0.022 BF
  30 detection
mask_scale: Using default '1.000000'
Total BFLOPS 34.888 
 Allocate additional workspace_size = 49.84 MB 
Loading weights from backup/learning_1000.weights...
 seen 64 
Done!

 calculation mAP (mean average precision)...
1344
 detections_count = 1280, unique_truth_count = 1344  
class_id = 0, name = 001, ap = 50.00%            (TP = 84, FP = 0) 
…
